assets/test_pose/smpl_parms.pth (torch, 145187 bytes, 3 tensors)

beta f4 [1, 10]
000000 c8 47 f2 be ab 80 5d bf 8b 83 c9 3e 18 fd 59 3c
       -0.4732039 -0.86524457 0.39358172 0.013304971
000010 56 28 a4 bf ca cc 7a bf 4b 3c 31 be ca 73 dd 3c
       -1.282481 -0.97968733 -0.17308156 0.027032752
000020 be fd a0 bd c1 13 23 be
       -0.078608975 -0.15925504

body_pose f4 [480, 72]
000000 85 0f 60 bc 97 61 13 3f d7 1a ad bc e1 a7 24 be
       -0.013675575 0.57570785 -0.021130962 -0.16079666
000010 6c 4d e7 bc 32 95 c6 3e ac ac bc be 84 ae f1 3d
       -0.02823516 0.38785702 -0.36850488 0.11800864
000020 3d fe 40 be 5d 2d 65 3c 63 7b 26 bd 8d 98 dc 3d
       -0.18846984 0.013987866 -0.040645014 0.10771284
000030 87 6d 76 3e e2 51 a5 3c 07 a9 05 bf 8a 01 38 3f
       0.24065219 0.020180646 -0.5221104 0.7187735
000040 8f 69 a2 bc 2e ff 31 3d ed 69 28 3e 71 c2 2a bd
       -0.019825725 0.04345625 0.16446657 -0.04168934
000050 c7 9c ea 3b 3e 37 55 b7 d2 59 0b 3c 9a 17 8e bc
       0.0071598026 -1.2708651e-05 0.008505302 -0.017345238
000060 75 e6 bc 3b e2 7f 8d bb f5 a1 50 bb 24 9f 69 3e
       0.0057647773 -0.0043182233 -0.0031834815 0.22814614
000070 53 26 8c bc 43 a4 27 bb 1a 91 25 3b cc 86 48 b9
       -0.017108118 -0.0025580085 0.002526349 -0.00019123702
000080 64 90 ba 3b 2e 52 9e 3a d5 3b ee 3b 24 2c 0c 3b
       0.0056934822 0.0012078935 0.007270316 0.0021388615
000090 3e 50 8c 3e 69 f1 d7 bd a1 ee c0 3c 11 9b a8 bd
       0.2740497 -0.10544092 0.023551287 -0.082327016
0000a0 55 73 39 be b4 0d f4 bd 8a 1e ae bd b5 c2 2e 3e
       -0.18110402 -0.11916676 -0.085019186 0.17066462
0000b0 b1 55 29 3d d7 01 e2 bd 13 73 96 bd 35 09 03 bd
       0.041341487 -0.11035507 -0.073461674 -0.031991202
0000c0 ad cb a9 bd 9b 95 e9 be 5b f4 24 bf be 41 f4 bd
       -0.08290801 -0.45621952 -0.64435357 -0.11926602
0000d0 07 e3 ac 3e 21 8b 13 3f ec 1d 93 bd a7 82 8f bf
       0.33766958 0.5763417 -0.071834415 -1.1211747
0000e0 3a d6 87 bd 19 aa 7a bd f0 93 82 3f bd 6d 83 3c
       -0.06632657 -0.061197374 1.0201397 0.016043538
0000f0 ba 50 6b 3c 86 07 35 bc 35 48 fa ba af 20 0b bc
       0.014362508 -0.011049157 -0.0019095006 -0.008491679
000100 ba 5a 88 3b 35 19 60 bc 15 57 83 3b c6 55 ee ba
       0.004161206 -0.013677885 0.0040081837 -0.0018183521
000110 8f 8e 45 3b 57 df 9f bb ee ce f6 3a f3 87 14 3c
       0.0030144786 -0.004878919 0.001882998 0.009065616
000120 77 fb 73 bc e9 6c 14 3f d1 b3 87 bc 1b 83 32 be
       -0.014891497 0.57978684 -0.016565235 -0.17432825
000130 48 7a 05 bd 02 96 ce 3e 3d 1c b6 be ca 8b e8 3d
       -0.03258732 0.40348822 -0.3556842 0.11354788
000140 8c 6c 42 be 40 0f 4c 3c 39 81 25 bd 29 c1 d3 3d
       -0.1898672 0.012454808 -0.04040644 0.10339577
000150 0a 5f 84 3e 58 27 ab 3c b8 06 0f bf 2c 72 36 3f
       0.2585376 0.020892784 -0.55869627 0.7126796
000160 4a ec ab bc f4 b1 0d 3d b4 6f 25 3e 56 d1 2d bd
       -0.020986695 0.034593537 0.16155893 -0.042435966
000170 a4 35 dd 3b d0 af 72 b8 b4 a2 0f 3c f6 fe 8d bc
       0.006750779 -5.7861034e-05 0.008766819 -0.017333489
000180 d9 2f ba 3b 1f f8 8d bb 94 ff 49 bb 91 33 65 3e
       0.0056819734 -0.004332557 -0.0030822502 0.22382952
000190 cc 96 88 bc aa 95 8d ba b8 28 18 3b 4f a4 36 ba
       -0.016673468 -0.001080205 0.002321763 -0.0006967233
0001a0 29 c0 b1 3b 3c 15 ae 3a 8a 8d f1 3b 6c 39 f1 3a
       0.0054245186 0.0013281475 0.007371609 0.0018403954
0001b0 85 69 8d 3e 9d 43 da bd c5 f3 a2 3c db 60 9f bd
       0.27619568 -0.106574275 0.019891629 -0.077821456
0001c0 7a f8 3b be 87 9f ec bd f1 dc a2 bd 62 83 2f 3e
       -0.18356505 -0.11553865 -0.079522975 0.17139962
0001d0 85 00 3d 3d 8d 4c d4 bd 58 94 a2 bd b1 73 d6 bc
       0.046143074 -0.103661634 -0.079384506 -0.026178213
0001e0 ee a0 ac bd de fb e7 be e4 da 27 bf 2e 28 f7 bd
       -0.084291324 -0.45309347 -0.65568376 -0.120682105
0001f0 90 f1 a7 3e e7 3d 15 3f 2d b9 96 bd 64 b3 8f bf
       0.32801485 0.5829758 -0.07359538 -1.1226621
000200 69 cb 87 bd 8e 78 7c bd ce d6 82 3f f0 0e 77 3c
       -0.06630594 -0.061638407 1.0221803 0.015079245
000210 10 2f 6c 3c 6b 40 33 bc 92 be 05 bb dc 30 0b bc
       0.014415517 -0.010940651 -0.0020407778 -0.008495536
000220 30 4c 8b 3b ab de 5f bc bd 91 7c 3b 6a 1e 01 bb
       0.0042510256 -0.013663928 0.0038539015 -0.0019701966
000230 32 23 46 3b 33 33 a1 bb 6d 05 10 3b 58 21 12 3c
       0.003023338 -0.0049194335 0.002197589 0.008919083
000240 3c ec 9e bc 38 65 15 3f 13 fc 0f bc 87 86 4e be
       -0.019399755 0.5835757 -0.0087881265 -0.20168506
000250 e0 c2 25 bd 16 a8 e3 3e 43 3a aa be ff 7a da 3d
       -0.04046905 0.44464177 -0.33247575 0.10667991
000260 d7 46 45 be 11 73 58 3c bb cc 22 bd 3f 95 d2 3d
       -0.19265305 0.013211028 -0.039746027 0.10282373
000270 fd f8 97 3e 68 ba bc 3c 46 14 25 bf e6 0f 34 3f
       0.2968215 0.023038104 -0.6448406 0.7033676
000280 b7 6f c5 bc b5 4b b1 3c 91 01 20 3e e9 2b 30 bd
       -0.024101121 0.021642545 0.15625598 -0.043010626
000290 7e ac bc 3b a2 2b 0f b9 6e 8d 26 3c 0b 72 90 bc
       0.0057578674 -0.00013653797 0.010165555 -0.017632505
0002a0 19 00 b8 3b 5c 0b 99 bb e9 4f 24 bb 74 7f 5a 3e
       0.005615246 -0.0046705436 -0.0025072044 0.21337682
0002b0 47 06 5e bc 8d d5 64 bb 79 34 a7 3a 8d 11 32 bb
       -0.013551301 -0.0034917325 0.0012756727 -0.0027171106
0002c0 62 89 81 3b 79 e8 eb 3a b8 c4 07 3c 67 05 54 3a
       0.003953145 0.0017998359 0.0082866475 0.0008087963
0002d0 a7 0b 8b 3e 87 b5 e0 bd ca e2 80 3c d5 1b 95 bd
       0.27157328 -0.109721236 0.015733141 -0.07280699
0002e0 fa 46 41 be b1 cb f5 bd 13 b4 88 bd 50 1a 32 3e
       -0.18874732 -0.12001742 -0.066749714 0.1739285
0002f0 b5 92 51 3d 86 f6 ae bd b1 13 b1 bd d5 01 ea bc
       0.0511653 -0.08543114 -0.08646334 -0.028565327
000300 9e 81 b2 bd 04 c5 e3 be cc 56 2c bf 62 31 fc bd
       -0.08716129 -0.44486248 -0.6731994 -0.123141065
000310 1e 5b 9c 3e 59 16 18 3f 3d 69 9d bd 3b d1 8f bf
       0.30538267 0.594091 -0.07686088 -1.1235727
000320 51 cc 78 bd fb 0c 80 bd 62 1f 84 3f d9 b2 a7 3c
       -0.060741726 -0.06252476 1.0322077 0.020471023
000330 e7 09 6c 3c 7b 13 39 bc 0d ae 59 bb ad b6 10 bc
       0.014406658 -0.011296148 -0.0033215315 -0.008832616
000340 9f fb a1 3b b1 21 65 bc 40 29 52 3b 52 38 2f bb
       0.0049433256 -0.013985083 0.0032068044 -0.002673645
000350 1b 4c 72 3b 98 fd a4 bb ed 3b 71 3b 8c e0 11 3c
       0.0036971632 -0.0050351135 0.00368094 0.008903634
000360 a6 56 00 bd 73 95 14 3f 13 98 fb 39 a3 f4 6b be
       -0.031332634 0.5804054 0.00047987755 -0.2304254
000370 d6 df 49 bd ac 19 fc 3e f7 be 9b be 07 25 cd 3d
       -0.049285732 0.49238336 -0.30419132 0.10016828
000380 97 55 4a be e4 cd a6 3c 82 a5 1a bd 9e 6e d4 3d
       -0.19759212 0.020361848 -0.037755497 0.10372661
000390 f6 d9 af 3e 6d 29 ca 3c 69 61 3e bf 01 16 32 3f
       0.34345978 0.024677956 -0.74367386 0.69564825
0003a0 5c 4f dc bc c8 11 83 3c 7c 49 1e 3e 43 27 29 bd
       -0.02689331 0.01599969 0.1545772 -0.04129721
0003b0 b2 cb c8 3b 1e 1d a9 b9 a5 bc 3b 3c 9f 19 95 bc
       0.006127798 -0.00032255886 0.011458551 -0.018200694
0003c0 2d bf b1 3b aa bb ac bb be 1c 03 bb e0 de 52 3e
       0.0054244013 -0.0052713947 -0.0020006145 0.20592833
0003d0 51 7f 07 bc 26 81 d1 bb 0c 09 df 37 a4 73 8d bb
       -0.008270101 -0.0063935695 2.6587884e-05 -0.004316764
0003e0 5e 7c 34 3b b6 79 0e 3b cd 6a 17 3c 31 4c 55 39
       0.002753995 0.0021740026 0.009241772 0.00020341646
0003f0 fc ed 82 3e e1 58 e7 bd 07 a5 36 3c 6b 0b 9b bd
       0.25572193 -0.11296249 0.011147744 -0.07570537

trans f4 [480, 3]
000000 7a e5 a0 3a 00 dd 2c 3e 2d 9d ae bc 49 d2 9c 3a
       0.0012275421 0.1688118 -0.021315182 0.0011964525
000010 a7 72 2c 3e d8 25 ad bc dd a3 97 3a 08 90 2b 3e
       0.16840611 -0.02113621 0.0011569221 0.16754162
000020 34 89 aa bc 7b 11 9b 3a 5a 98 2a 3e 4c fb a7 bc
       -0.020817377 0.0011830771 0.1665968 -0.02050557
000030 f3 44 a7 3a 7b a4 29 3e cd 21 a5 bc 2b c8 a7 3a
       0.0012761637 0.1656665 -0.020157719 0.0012800744
000040 c2 cb 28 3e 32 f4 a2 bc bc 17 aa 3a c3 20 28 3e
       0.16483977 -0.019891832 0.0012977044 0.16418748
000050 f5 12 a2 bc 9c 9c b4 3a 5d a9 27 3e 32 2b a1 bc
       -0.01978443 0.0013779583 0.163732 -0.019673917
000060 b3 68 d5 3a 2f 45 27 3e cb 25 a0 bc 27 be 00 3b
       0.0016281813 0.16334985 -0.019549271 0.001964459
000070 b9 0a 27 3e 20 22 9f bc a3 4c 21 3b 9b ec 26 3e
       0.16312684 -0.019425452 0.002461233 0.16301195
000080 3a b0 9e bc 44 f8 46 3b 06 c8 26 3e 75 25 9e bc
       -0.01937114 0.003036038 0.1628724 -0.01930497
000090 8e 5d 72 3b 62 d2 26 3e 1b d1 9d bc 23 68 93 3b
       0.0036982032 0.16291192 -0.019264748 0.004498498
0000a0 6a ef 26 3e 52 ef 9d bc 58 69 ac 3b f0 2a 27 3e
       0.16302267 -0.019279156 0.0052615814 0.16324973
0000b0 be ea 9d bc 57 bd c1 3b 58 9c 27 3e db 9e 9e bc
       -0.019276973 0.0059124636 0.16368234 -0.019362858
0000c0 29 56 d3 3b 38 38 28 3e a4 c5 9f bc 5d 42 e6 3b
       0.00644948 0.16427696 -0.019503422 0.007026954
0000d0 d9 e7 28 3e 48 f9 a0 bc da ac f5 3b 04 9b 29 3e
       0.16494693 -0.019650117 0.007497412 0.1656304
0000e0 4f 2d a2 bc 02 88 01 3c 9b 4b 2a 3e f7 c4 a2 bc
       -0.019796995 0.007905962 0.16630404 -0.01986931
0000f0 60 d4 08 3c c8 f9 2a 3e da 5b a3 bc 15 12 11 3c
       0.008351415 0.16696846 -0.01994126 0.008854409
000100 64 87 2b 3e d6 ec a3 bc ee 10 1a 3c a3 fa 2b 3e
       0.16750866 -0.020010393 0.00940345 0.16794829
000110 cd f7 a4 bc 19 d9 21 3c 93 2e 2c 3e 30 f4 a5 bc
       -0.020137692 0.00987842 0.16814642 -0.02025804
000120 cf 1f 28 3c 42 3a 2c 3e 39 6a a7 bc af d2 2d 3c
       0.01026149 0.16819099 -0.020436393 0.010609313
000130 14 f7 2b 3e 3c c1 a9 bc ac 9b 33 3c e5 7d 2b 3e
       0.16793472 -0.020722024 0.010962408 0.16747244
000140 9d 6b ab bc ed 06 39 3c 71 e3 2a 3e 31 77 ac bc
       -0.020925337 0.011293155 0.16688325 -0.021052929
000150 2d af 3c 3c c4 28 2a 3e b1 1c ad bc c6 67 41 3c
       0.011516375 0.16617113 -0.021131845 0.011804527
000160 3d 83 29 3e f8 f7 ae bc 75 eb 47 3c ab d4 28 3e
       0.1655397 -0.021358475 0.012202133 0.16487376
000170 04 98 b1 bc 36 cf 4d 3c c8 2d 28 3e bb 46 b4 bc
       -0.021678932 0.01256161 0.16423714 -0.022006383
000180 ee 33 51 3c 52 89 27 3e 0c 78 b6 bc e4 5e 54 3c
       0.012768729 0.16360977 -0.02227404 0.012962077
000190 73 05 27 3e ed ce b8 bc c2 9b 55 3c f4 ab 26 3e
       0.16310672 -0.022559607 0.013037624 0.16276532
0001a0 f4 4c bb bc 09 9a 54 3c 25 59 26 3e 0f 82 bb bc
       -0.022863843 0.012976178 0.16244943 -0.022889165
0001b0 01 b4 53 3c 3b 12 26 3e b9 2c ba bc e2 98 50 3c
       0.012921334 0.16217892 -0.022726404 0.012731763
0001c0 a6 dd 25 3e ca ba b7 bc e9 d9 4c 3c 65 ca 25 3e
       0.16197833 -0.022427935 0.012503126 0.16190489
0001d0 9a 4b b4 bc de fd 48 3c 46 f7 25 3e f5 3b b1 bc
       -0.022008706 0.012267558 0.16207609 -0.021635035
0001e0 53 2d 43 3c 3f 44 26 3e e7 bf ae bc 75 aa 3b 3c
       0.011912662 0.16236971 -0.02133174 0.011454214
0001f0 5a aa 26 3e 83 0f ad bc 7b ad 34 3c 81 0c 27 3e
       0.16275921 -0.02112556 0.011027689 0.16313364
000200 6c ec ad bc 5c 84 2e 3c 50 b9 27 3e 2a 6c af bc
       -0.021230899 0.010651674 0.16379285 -0.021413881
000210 a7 75 29 3c a5 48 28 3e 02 b8 af bc b7 14 24 3c
       0.010342992 0.16433962 -0.021450046 0.010014704
000220 ed ca 28 3e e0 5e af bc a6 96 1d 3c 66 7b 29 3e
       0.1648366 -0.021407545 0.009618437 0.16550979
000230 db 89 af bc 39 da 17 3c 59 4a 2a 3e f1 0f b0 bc
       -0.02142804 0.009268337 0.16629924 -0.021491976
000240 4e 23 13 3c 15 31 2b 3e b1 ab af bc 33 33 0e 3c
       0.008980585 0.16717942 -0.021444174 0.008679199
000250 71 25 2c 3e 02 85 ae bc 23 ca 08 3c 34 f7 2c 3e
       0.16811158 -0.021303657 0.008348974 0.16891176
000260 b1 51 ad bc 71 6d 03 3c bc 92 2d 3e cb 79 ac bc
       -0.021157118 0.008021698 0.16950506 -0.02105417
000270 76 56 fe 3b 18 22 2e 3e 88 6d ab bc 9f 52 f7 3b
       0.007761772 0.17005193 -0.020926252 0.007547691
000280 f6 8a 2e 3e 9f a8 aa bc 66 f3 ed 3b 12 d3 2e 3e
       0.17045197 -0.020832358 0.0072616814 0.17072704
000290 18 8e a9 bc b0 cc e4 3b 61 fc 2e 3e 5c 23 a7 bc
       -0.020697638 0.0069824085 0.17088462 -0.020402603
0002a0 58 3f dc 3b b4 fe 2e 3e 5c 5d a4 bc 28 ad d4 3b
       0.0067214184 0.17089349 -0.020064048 0.0064903684
0002b0 ed de 2e 3e 83 52 a1 bc 84 4c cf 3b 64 ae 2e 3e
       0.17077227 -0.019692665 0.00632626 0.17058712
0002c0 93 92 9e bc 86 86 cc 3b 4e 5e 2e 3e 9d 41 9c bc
       -0.019357001 0.0062416224 0.17028162 -0.019074256
0002d0 41 10 c9 3b 77 08 2e 3e 04 df 99 bc 79 aa c4 3b
       0.006135971 0.16995417 -0.0187831 0.0060017672
0002e0 0a 88 2d 3e 5d 48 97 bc 20 89 ba 3b 3b e3 2c 3e
       0.16946426 -0.018467123 0.005692616 0.16883557
0002f0 94 8a 94 bc 74 e7 ae 3b c2 28 2c 3e b2 f4 91 bc
       -0.018132485 0.00533765 0.16812423 -0.017816875
000300 57 43 a8 3b 89 7b 2b 3e c8 dc 8f bc cb 29 a5 3b
       0.0051349807 0.16746344 -0.017561331 0.0050403825
000310 29 e4 2a 3e 48 b1 8e bc 85 15 9d 3b 34 43 2a 3e
       0.16688599 -0.017418519 0.004793825 0.16627198
000320 6e 37 8d bc 6f a8 90 3b 59 af 29 3e ad af 8b bc
       -0.017238345 0.00441461 0.16570796 -0.017051542
000330 d1 81 84 3b f6 56 29 3e c2 6f 8a bc ff ea 6a 3b
       0.0040437956 0.16537079 -0.016898993 0.0035845635
000340 e7 0e 29 3e 95 5a 89 bc 1b 5c 49 3b 6e e0 28 3e
       0.16509591 -0.016766826 0.0030725065 0.16491863
000350 f1 c3 88 bc 37 0b 27 3b d4 cd 28 3e 45 a6 88 bc
       -0.016694995 0.0025488862 0.16484767 -0.016680846
000360 ff 3d 07 3b b4 f8 28 3e 2b 17 89 bc 0a fa ca 3a
       0.0020636318 0.16501123 -0.01673468 0.0015485894
000370 85 5a 29 3e c3 58 8a bc 7d f3 70 3a 93 f1 29 3e
       0.16538437 -0.016888028 0.0009191556 0.1659606
000380 1f 8b 8c bc 14 a1 64 39 39 ba 2a 3e 3d 28 8f bc
       -0.017156182 0.0002180378 0.16672601 -0.017475242
000390 be a3 01 ba 18 90 2b 3e 89 36 92 bc cd b7 8d ba
       -0.0004945359 0.16754186 -0.01784827 -0.0010812223
0003a0 3e 73 2c 3e 33 78 95 bc ce 85 c8 ba 4f 2d 2d 3e
       0.16840836 -0.018245792 -0.0015298666 0.16911815
0003b0 9c 6c 98 bc 49 ee 07 bb c3 df 2d 3e 73 d6 9a bc
       -0.018606476 -0.0020741394 0.1697989 -0.018901085
0003c0 eb d5 28 bb 0f 68 2e 3e 68 93 9c bc 44 75 4a bb
       -0.002576227 0.17031883 -0.019113258 -0.003089265
0003d0 3e b1 2e 3e 28 86 9e bc db a9 67 bb 69 cf 2e 3e
       0.170598 -0.01935108 -0.0035349044 0.17071308
0003e0 0e fe a0 bc 26 27 87 bb 1f ac 2e 3e 47 a5 a3 bc
       -0.019652393 -0.00412454 0.17057846 -0.019976271
0003f0 52 b6 9c bb ef 56 2e 3e f1 ec a5 bc 6c 3a ae bb
       -0.0047824765 0.1702535 -0.020254584 -0.005317023
